rl_attack_demo/outputs/dqn_multi.pth (torch, 536284 bytes, 6 tensors)

net.0.weight f4 [256, 3]
00000000: 74d6 523d 281e 89be 0776 13be 6c92 79bc
00000010: af6a f8bd 1f5c 103f ae22 71be 48d3 33be
00000020: ad71 0ebe 2e63 7abe 652c a9be e250 fbbc
00000030: deb6 42be e603 47be deb3 1e3e 3145 e1be
00000040: 5564 98be b467 43be 98a8 60bd f207 42bb
00000050: 705b 99be 2e10 9c3d 03b8 44be 0413 113f
00000060: ece0 04bf 732c f2be 52b6 9e3e defd 8cbe
00000070: 3b2a 12bd f39f 533c f034 963d f993 dfbe
00000080: 0330 dabe 18bc 363d a56a 27bf 64f8 acbe
00000090: bfda a53d 9aa5 4abe 4c61 a83e f8e2 03bf
000000a0: d7ac 0ebf 0028 643e 322e bd3e 3a6c 4bbf
000000b0: 9474 01bf 0295 f5bd 76c8 a7be caf8 01bf
000000c0: 8b30 40bd 6e36 d93b c47a 0fbf af4b 80be
000000d0: 68c2 9ebb cf02 f73e 015b 833e d157 c3be
000000e0: 9920 ebbe 431e ec3b f482 9abe 8c5a 263e
000000f0: 6525 de3d eaae 09bf fe7a 973d 8a7d 0d3e
00000100: 3b3e afbe bafb 063f c863 edbd ff08 dabd
00000110: 46f9 bfbe 59af bc3e 1097 12bf 0572 283e
00000120: 3dec 72be 8159 2e3e 67bd 29bd fa98 a2bc
00000130: a652 213c 1a27 f4be 441a 8b3e 9c6e b4be
00000140: 1290 b6be a352 9a3e 2e9d aabe 11d9 493d
00000150: d022 bebc 5649 c2be 4620 5c3d 42c4 28be
00000160: 96e5 b1be d919 a6bc 3dec 5abe e048 02bf
00000170: b80f 6b3e 0034 b23e 696b edbe baf9 de3e
00000180: 2499 b0be 21af b5be 65d2 9dbe 0846 11bd
00000190: d310 083c bcb9 073e bcaa ffbe eff6 edbd
000001a0: e6f1 9fbe 67ef a43e 05ef 1dbf 4b55 0bbf
000001b0: 1a54 55be 7a5b 2ebe 466d e73e 53c2 c0be
000001c0: 2216 5e3e 7aed 543e a2ea 73be 1c5d 67be
000001d0: 7920 0f3f f24b abbe 1cc8 51be 0e7b 0cbf
000001e0: 137c 313e 5123 ddbe f8f8 f8be 6876 8bbe
000001f0: f14d 12be 6230 263e 4f19 24be 673a 2fbf
00000200: 9ace 4dbd 315d 9b3e 6b50 34bf 0954 f8be
00000210: db23 46be f74b 00bf 6029 a9be b319 d5be
00000220: b276 f5bd 8f52 9f3e c051 c93c 99dd 94be
00000230: 4c2c 0bbf 886a 3f3e 2406 41bf 1ed3 fabe
00000240: 28a4 a13d 6332 4ebe 78fb 12bf 6055 b4bd
00000250: 398f f5ba 1369 c83d ab58 303e eb6e 78bf
00000260: 4dfa c0be be18 b83e 56cc 3fbf 545c b8be
00000270: 56d8 00be 29ff 99be 58e4 053f c9e1 5bbe
00000280: ec69 e33b e120 073e 55e5 4fbe 6019 113e
00000290: a4be 6c3e a5bd c3be 3fa9 e3be 094f 97be
000002a0: 773e 973e a59c 79be 204e 663e 314c 693d
000002b0: c2cb d2be 7652 ed3d 4c2e 243e 1280 24bf
000002c0: 6d15 cb3e 8945 2a3e 3fa0 debe 1ce4 00bf
000002d0: 9948 cebf eb6f 333e 9ca4 cd3e 95ad 02bf
000002e0: 555a b8be 6462 afbe 9ff2 593e 57bf 09bf
000002f0: 09a0 e7bd cc3c 52bf 5895 bb3e 0e70 0e3e
00000300: 1fbe 3dbe ed5f 7abc 55f1 7b3e 0c54 e6be
00000310: 1156 8b3e 0fb2 a23e a341 12be 659c 77ba
00000320: 5f93 653e 9848 9cc0 7d4d 733d db87 483e
00000330: 2a30 ee3e dd4c 21bf 36cb 66bd f25f 4ebd
00000340: ec56 9ebe a4a9 6e3e 90d1 5cbe e285 f6be
00000350: e5a7 5bbd 32fa 82bc dec6 09bf 3472 46ba
00000360: 67a0 44be 0246 f8be 5d47 bcbd 0612 00bf
00000370: a516 a4be 4137 e53e bfe8 d9be 5b8d f5bd
00000380: 8a7d cb3e 862e 10bf 27b2 c5be 7159 3b3e
00000390: fe76 a0be 764c 5fbe b601 d2be 49c8 9b3e
000003a0: a7bc 15bf 8884 8c3c 0277 5e3e 5537 0cbf
000003b0: 10a2 0b3e 6c65 16bd 0d26 e33b 9f80 fbbd
000003c0: 18c9 303e fbee 26bf 3bf6 263e 5bd4 02bd
000003d0: a387 d5bb 1143 853e 1b1b 7ebd 53ed 473c
000003e0: 227a 533e 439c 463d 6a4f 07c0 bc6b 9d3e
000003f0: e64e 01bd 661a 0c3c 1beb e33e 9ea7 ee3e
0.05147405 -0.2678082 -0.14400493 -0.015232664 -0.12129723 0.56390566 -0.23548386 -0.17561066
-0.13910551 -0.24451897 -0.33041683 -0.030678216 -0.19015071 -0.19435081 0.15498301 -0.439981
-0.29764047 -0.19082528 -0.054848284 -0.0029606787 -0.29952574 0.076202735 -0.1921082 0.5666964
-0.51905704 -0.47299537 0.30998474 -0.27537435 -0.035684805 0.012916553 0.07334316 -0.43667582
-0.42614755 0.044612974 -0.653971 -0.33783257 0.08098363 -0.19789734 0.32886732 -0.515182
-0.5573248 0.22280884 0.36949307 -0.79462016 -0.5056851 -0.119913116 -0.32770127 -0.50770247
-0.046921294 0.006628803 -0.560467 -0.25057742 -0.0048449524 0.4824433 0.25655368 -0.38152936
-0.45923308 0.007205756 -0.30178034 0.16245478 0.10846976 -0.5378252 0.07396506 0.1381742
-0.34227166 0.52727854 -0.115912974 -0.10646247 -0.37494868 0.3685253 -0.57261753 0.16449745
-0.2372293 0.1702633 -0.041440394 -0.019848336 0.009846365 -0.47686082 0.27168477 -0.35240638
-0.35656792 0.30141172 -0.33323044 0.049279276 -0.02320996 -0.37946576 0.053741716 -0.16481116
-0.34745473 -0.020275997 -0.2137918 -0.5089245 0.22955215 0.34805298 -0.4637101 0.435499
-0.34491837 -0.35485175 -0.3082458 -0.035467178 0.008304792 0.13254446 -0.49934947 -0.116193645
-0.3123924 0.322139 -0.6169284 -0.5442702 -0.20832863 -0.17027083 0.45200557 -0.37648258
0.2168813 0.20793715 -0.23819974 -0.22594112 0.55908924 -0.3345638 -0.20486492 -0.54875267
0.17332487 -0.43191007 -0.48627448 -0.27238774 -0.14287545 0.16229394 -0.1602528 -0.6844849
-0.05024586 0.30344537 -0.7043521 -0.48501614 -0.19349615 -0.50115913 -0.3303938 -0.4162117
-0.1198553 0.31117675 0.024575114 -0.29075316 -0.54364467 0.18692982 -0.75399995 -0.48989195
0.078926384 -0.20136409 -0.5741496 -0.088053465 -0.00187347 0.09785666 0.17221324 -0.9704425
-0.37690964 0.35956377 -0.74921167 -0.3600794 -0.12582526 -0.30077484 0.5230155 -0.21472849
0.006940117 0.13196136 -0.20302327 0.14169836 0.23119599 -0.38230625 -0.44465062 -0.29552487
0.29539844 -0.24376161 0.2249074 0.056957427 -0.4117108 0.11587994 0.16033286 -0.6425792
0.39664784 0.16628088 -0.43481633 -0.5034807 -1.6115905 0.17523162 0.4016465 -0.51046115
-0.36006418 -0.34254754 0.21283959 -0.53807586 -0.11309821 -0.8212402 0.36637378 0.13909933
-0.18529557 -0.01528166 0.2460378 -0.44985998 0.272141 0.31776473 -0.14282851 -0.0009445607
0.22419499 -4.8838615 0.05940007 0.19583075 0.4652112 -0.6300791 -0.05634614 -0.05038447
-0.3092569 0.233069 -0.21564317 -0.4814902 -0.053626914 -0.015988443 -0.5381907 -0.0007570118
-0.19201814 -0.48490912 -0.09193299 -0.500275 -0.32048526 0.44768718 -0.42560384 -0.11989852
0.39744216 -0.5632099 -0.38612482 0.18295838 -0.31340784 -0.21806511 -0.4101693 0.30426243
-0.58490986 0.01715304 0.21725085 -0.5477193 0.1363604 -0.036717817 0.0069320262 -0.12280392
0.17264211 -0.65208405 0.16304867 -0.0319408 -0.0065164133 0.2602773 -0.06203757 0.012202579
0.20652059 0.048488867 -2.114222 0.30746257 -0.031569384 0.008551216 0.4451531 0.46612257

net.0.bias f4 [256]
00000000: d51e d4be fb46 eb3e 0328 dd3f 6a70 e33f
00000010: 9601 b63f 8d25 553e 2a66 08bb b548 08bf
00000020: c590 89be 5b47 e93e 6290 233f cf38 693f
00000030: e62f c3bf 4208 013e 8425 7ebf 82e2 c23c
00000040: 249a 5bc0 cd4d 66ba e8c8 52c0 cc7a 90be
00000050: 9ee1 233f b31c debf f018 b5bd 0676 a1bf
00000060: 8ff0 d93f 0329 37c0 1a35 f93f 2deb 1dc0
00000070: 6d1f 5fbd d98e e4be 298d 01bf f2a4 e8bf
00000080: 903b 51be 3c0d 20c0 7b7d 62bd 1ffe 3fbf
00000090: 8a3b c33f eefe 983f fdd2 553f 386f 06be
000000a0: 698c dbbf ba85 c23f c4f9 9c3f 6c92 32bf
000000b0: 46f9 dd3e ce1c 673e 1435 34be d7f0 0f3f
000000c0: 0365 d9bf 6f7f febb 791d 0b3f 7874 12bf
000000d0: 3ffe 3b3f 8717 0dc0 c265 aa3f f75d 933e
000000e0: 0a51 0a40 e74e 363f 1551 79bf 1e02 c8be
000000f0: f592 b6bf 789b a4be f99d afbf e49d 163e
00000100: 2626 753f 79b6 8a3f 787a 59bf 42d3 9dbf
00000110: f330 01c0 10f0 2940 cbf6 d13f 9221 41be
00000120: 1b72 9b3e 4b6b 533d f3cd 963e 9b01 bfbe
00000130: 6152 e2be 2f5e 4d3e 4f0c bcbf f6d0 e7bf
00000140: 4ed1 2bbf 5165 a2ba 9634 57c0 87c4 b63f
00000150: 3937 29c0 eefd bf3f 9dfc a0be 7b7d 22c0
00000160: 8085 a1bd 3aca abbf 85d0 1dc0 f8bb a93f
00000170: 3fbf 873f e77c 23bf 5577 153f 6202 6b3f
00000180: 4444 f7bb aa67 9a3f c0ec 5c3e f4a0 cbbe
00000190: 1199 2fbf cf7a 61bf 40e6 d83f 6826 ed3e
000001a0: 7356 a4bf 9252 dabe 68a2 f63f 95c5 a83f
000001b0: c5f3 863f 8eb9 85bf 1c06 963e 87c3 7abb
000001c0: d126 913e 2eae a03f 30d3 d6bf 2f20 18be
000001d0: 0101 03bf f36e 27c0 446f c2bb a384 74bb
000001e0: 973a 813d 3124 1cbf d5d5 3c3f 9f50 483e
000001f0: 16ed e5be 211e ff3d 403d 0ec0 3ce7 5e3f
00000200: 3355 cdbf 2e60 9b3e 488f 01bf 5cd1 62be
00000210: aac1 01c0 8532 00bf ef18 96be e345 70be
00000220: 913f a8bf d149 9fbf 09df b73e 2056 bebd
00000230: 3ea6 d13f 33d0 b1be 1f25 2f3f de7c 94be
00000240: 0eab 533f bb18 e9bf 4586 2dc0 488e 19c0
00000250: 6cd5 833d 52af d83f f714 a43f 5eff 5b3e
00000260: 87dc b1bf 935b bdbd 6476 1dc0 4152 2fc0
00000270: e88f 27c0 89df b43c 41aa 89bf b4de 593f
00000280: ec08 acbf d2d3 12c0 da30 3140 9485 8dc0
00000290: 190c cebe 5dc9 fb3f a4f5 b0bb e4f5 d53f
000002a0: b334 a3bf db79 103d 4810 89be 9d7b bd3e
000002b0: 7b7c d0be e673 17bb 209b 05bf 8ab7 c23f
000002c0: 991f debf 63c8 e83f e7b8 ee3f 73b7 83bb
000002d0: 3396 7dbf 0f21 4d40 6a55 8ebf 18b7 7cc0
000002e0: cc08 a3bf ee71 e33e e783 933e 0789 b53f
000002f0: fd31 993d 7c7d 15bc 4109 a0c0 7166 4abd
00000300: 0d6d 06be 197e 06c0 36c5 df3f e2f6 11be
00000310: 0a17 83bf 4dab 5abf b23b 0040 152a a4be
00000320: 2235 2ebe 80c6 70bb b636 753f 8398 1040
00000330: 24ee c2be fbb5 57c0 07dd 53bb 84cb 3ec0
00000340: cd3d 453f 2335 70bb 93ac e5be dd2e 2d3e
00000350: 7d41 b83e f54c 02c0 06fb 07bb cd40 26c0
00000360: 205e 66c0 1f2d c1bf a1d5 19be c6fd 2d3f
00000370: 5c54 18bb 65c4 5cbf 2c64 2fc0 9f67 b73e
00000380: f53e 87c0 6e79 3dc0 1e14 9abe da1d 40c0
00000390: 7216 0cbf d290 a73f 1428 88bd 9ad2 c53e
000003a0: 21f0 a13e 17f6 a23e 76aa 44bb 7093 adbd
000003b0: 65d0 4b40 ecb7 d2bf a911 ef3f e37c d5be
000003c0: 3cb4 01bf 5c9d 1b3f d962 38c0 2a4f 793e
000003d0: 64a6 df3f a4ce 9dbd 6f65 2ec0 01b5 1340
000003e0: ab3f 6abf 6a3f f7bd ecba 8c3f 49b0 92bb
000003f0: 88bc 023e 4b06 4c3f 46b7 8cbe c04b 6a3f
-0.41429773 0.4595259 1.7277836 1.7768681 1.4219234 0.20815106 -0.0020812848 -0.5323594
-0.26868263 0.45562252 0.63892186 0.9110231 -1.5248992 0.12600806 -0.99275994 0.023789648
-3.431283 -0.0008785397 -3.2935123 -0.28218687 0.6401614 -1.7352508 -0.08842647 -1.2614143
1.7026538 -2.8618782 1.946933 -2.467479 -0.05447333 -0.44640234 -0.5060602 -1.8175337
-0.20432878 -2.5008078 -0.05529545 -0.74997133 1.5252545 1.1952798 0.8352507 -0.13128364
-1.7152225 1.519706 1.2263722 -0.6975467 0.43354243 0.22569582 -0.17598373 0.5622687
-1.6983951 -0.007766656 0.54341847 -0.5720897 0.73434824 -2.204561 1.3312304 0.28782627
2.1611962 0.71214145 -0.97389346 -0.39064115 -1.4263598 -0.32149863 -1.3720084 0.14708668
0.95761335 1.0836936 -0.849525 -1.2330096 -2.0186126 2.6552773 1.640344 -0.18860462
0.30360493 0.051615994 0.29454002 -0.37305912 -0.44203475 0.2005546 -1.4691256 -1.8110645
-0.6711625 -0.0012389814 -3.3625846 1.4278725 -2.6439955 1.4999368 -0.3144273 -2.5389087
-0.07886791 -1.342109 -2.465852 1.3260489 1.0605239 -0.6386246 0.5838521 0.9180051
-0.0075459797 1.2062886 0.21574688 -0.39771235 -0.68592936 -0.88078016 1.6945267 0.46318364
-1.2838882 -0.4264112 1.9268312 1.3185297 1.0543143 -1.0447252 0.29301536 -0.0038263516
0.28349927 1.2553155 -1.6783199 -0.14856027 -0.51173407 -2.6161468 -0.005933674 -0.0037310503
0.06310003 -0.60992724 0.7376378 0.19562005 -0.44907445 0.124569185 -2.2224884 0.87071586
-1.6041626 0.30346817 -0.50609255 -0.22150177 -2.0274453 -0.50077087 -0.29315898 -0.2346416
-1.3144399 -1.2444402 0.3591235 -0.09293771 1.6378858 -0.34729156 0.6841602 -0.29001516
0.82682884 -1.8210672 -2.7113202 -2.3993092 0.06437191 1.6928504 1.2818898 0.21484134
-1.3895425 -0.09245982 -2.460351 -2.7393954 -2.6181583 0.022079246 -1.0755082 0.85105443
-1.3440223 -2.2941785 2.7686067 -4.422556 -0.40243605 1.9670826 -0.0054003764 1.6715665
-1.2750458 0.03527246 -0.26770234 0.37008372 -0.4071997 -0.0023109852 -0.52189827 1.5212262
-1.7353393 1.8186153 1.8650178 -0.0040196716 -0.9905731 3.2051427 -1.1119816 -3.9486752
-1.273706 0.4442286 0.2881157 1.4182442 0.07480238 -0.009124156 -5.0011296 -0.049414102
-0.13127537 -2.1014464 1.7482059 -0.14254335 -1.0241406 -0.85417634 2.0036435 -0.32063356
-0.17012456 -0.003673941 0.9578661 2.2593086 -0.38072312 -3.3704822 -0.0032327787 -2.9811716
0.77047426 -0.0036652766 -0.44858226 0.16912408 0.35987464 -2.035947 -0.0020748987 -2.5977051
-3.599495 -1.5091895 -0.15022899 0.6796535 -0.0023243641 -0.86237174 -2.740489 0.35821244
-4.226435 -2.9605365 -0.30093473 -3.001822 -0.5472175 1.3091071 -0.06648269 0.3863724
0.31628516 0.31828377 -0.003000883 -0.08475387 3.1845944 -1.6462379 1.8677264 -0.41696844
-0.5066564 0.60786986 -2.8810332 0.24346605 1.7472653 -0.07705429 -2.724941 2.3079226
-0.915034 -0.12072642 1.0994544 -0.0044765812 0.12767231 0.796971 -0.27483577 0.91521835

net.2.weight f4 [256, 256]
00000000: e67d 153d f7cc 5c3e 3e89 d0be 6bba 23bf
00000010: 6634 28be 0c1c 203e d9c8 093d 6283 5dbc
00000020: 327f 443d c360 67bd b02f c83e 5b70 46bd
00000030: a258 2bbd 9c7d 1b3e fe11 3c3e ccb0 623d
00000040: 55ba b23e 4616 a3bd 3b39 56be 38fc d2bc
00000050: 2fef 923e fc96 4abf 2cfc 29bd fbf4 aebe
00000060: 3bd9 69be dbdc e33e 1966 0dc0 3c17 babf
00000070: b009 483c 4afb 59bd f0f2 8c3c 2dde c4bb
00000080: 7c65 01bd afc0 283e 54e2 0ebd 2a4b ab3c
00000090: 61ac b4be 4196 dabe fb22 2bbe ba9b 75bd
000000a0: deb7 673c 66b9 f0bd c3c6 9ebe d529 a43e
000000b0: ed34 1f3e e1b9 b63d d8ed 893e 1fab ac3e
000000c0: 5363 633d 0b82 5cbd 4a49 183e 1978 3f3e
000000d0: c9d1 efbd 6f31 623d 64e1 53be 1908 2a3e
000000e0: 6c95 2cbe 0cbc a33e 966e cabf 071d 803e
000000f0: fb77 12be fcba e63c 9c82 60be 31d7 a5bf
00000100: 7062 ffbc fd57 42be 126f 5cbc 69fe 52be
00000110: b3c0 8abd d5ec c8bf 3f1b b9bd a046 e6bc
00000120: 5a91 f23d c512 d53d aed1 253e 94d9 19bd
00000130: 646e e5bc 6cf5 2a3e 1392 90bd e534 d13d
00000140: 4571 bb3d 3608 e8bc 4052 9b3e 4002 8abd
00000150: 92d6 143f 22b3 50c0 1213 253d 34af 7a3d
00000160: e8b5 063c 2976 ae3d 2c85 313e 89c6 84bf
00000170: 3385 cebd e221 1a3d 48fd 463e c548 97be
00000180: a823 eabc a316 68be 3ede 93bc 7839 573c
00000190: 11d6 26be 4c07 55be 5a76 4ebe 4a0d dabc
000001a0: 9f9b e33d 4016 6fbb 99f6 b9bd ba61 32be
000001b0: 7103 aebe de7f dcbd fcc3 873d be44 f4bc
000001c0: b5cd 5e3d 51cc 22be ba34 a93d fb92 bdba
000001d0: 40db 8f3a decd 0c3e a6ab 113e 12df 373c
000001e0: 0c3c 123e 6161 febf 2149 61be 7719 ca3d
000001f0: dcaf 3c3d 2c12 9c3d c679 803d 6b07 083d
00000200: 506a 333e 976e 2c3d 76ff 55bd 401f 823c
00000210: 36ac 063e 9063 5e3d 78a3 453d 22ee 29bd
00000220: 9c39 c4bd 4dd2 4d3d e0e8 0f3e 601a 6ebd
00000230: 3327 2fbd c0ff 463b 959e 7c3e d050 ef3c
00000240: 0d22 8abd e6ec 1e3e 23d2 223e 0ee0 ba3d
00000250: 001e 033e 497d d8bd 2b0b 09be ecba 9d3d
00000260: 8e17 d73d 254a 14bf 526b 273e 3e08 4f3e
00000270: 8559 e23d dc40 1f3e 0472 73be d0a9 48bc
00000280: 5cf7 953c 59ca 9b3d 7bf7 2bbe 2bbd 573e
00000290: 308f 9e3c 55ef e1be 30c5 f83d 6299 b7bb
000002a0: e86b 833d c6aa 53bd 7bd7 cbbd b318 853d
000002b0: 4650 393d aeb4 e8ba 50cb 53bc c653 a6be
000002c0: 6d55 d03e 656f 3fbe fb43 9cbf c79e d3bc
000002d0: 2d4f 57be 4755 a3be ab0e a7bf 58cc 263f
000002e0: cb7c 13bf f102 013e 0fb9 633d 33f5 aabd
000002f0: f03f 6b3d 612f d53d c2e4 3dbd 7c17 1bbd
00000300: 82ae 41bd 62b1 db3d 3d98 bdbd 2c64 f1bc
00000310: 5bea 47bc 112e 1a3d 506e 1fbe cc2d 01bd
00000320: 50a4 11bc 0980 ed3c bc81 383d eb37 b33b
00000330: e03a 5ebd 403d 9dbe a830 023e e152 213e
00000340: 4092 a63e 0405 a7bc 00c8 7d39 79d7 90bf
00000350: 740c 893c 12e4 2ebf af88 aabd bda9 f0bd
00000360: ee95 cf3e 2a76 683d ae21 293d a5b1 fbbc
00000370: b163 4f3d f998 423d 5b38 b9bd 4ee0 853d
00000380: 9002 503f 8dd4 d63d 0aaf 133d 3996 023e
00000390: a230 b3bb 2cf3 25bc fc63 783d b929 b13e
000003a0: f14e 953e 1a2f e73c 4b9e e23d e0c9 183b
000003b0: a625 e0bc 1b6a 01bd 6122 bfbd c09f eabb
000003c0: 5ea6 563d 0df1 563e aa7e f43d 2e13 173e
000003d0: 5221 b6be 7e34 0f3d 364e 1d3e c670 2cbd
000003e0: 0e0e 5c3d 1cec 64bd 4562 25bd 0f92 893c
000003f0: a0d6 04c0 f557 94bd bc59 f8bc ca6b 2a3b
0.03649702 0.21562563 -0.40729707 -0.63956326 -0.16426238 0.15635699 0.03363881 -0.013520094
0.047972865 -0.056488764 0.39098883 -0.048446994 -0.041832574 0.15184635 0.18366238 0.055344388
0.34907785 -0.07963233 -0.20920269 -0.025755033 0.28698108 -0.79136634 -0.041500255 -0.3417128
-0.22836773 0.44504437 -2.2093565 -1.453834 0.012209341 -0.053218164 0.017205685 -0.0060079307
-0.031590924 0.16479753 -0.034883812 0.020909864 -0.35287765 -0.4269276 -0.16712563 -0.059962966
0.014142958 -0.11754112 -0.31011018 0.32063165 0.15547533 0.08922172 0.26939273 0.33724305
0.055514645 -0.053834956 0.14871708 0.18698157 -0.11709935 0.055222925 -0.20691448 0.16604652
-0.16853875 0.31979406 -1.5814998 0.25022146 -0.14303581 0.028165333 -0.21924824 -1.2956296
-0.031174868 -0.18978877 -0.013454216 -0.20604862 -0.06775036 -1.5697275 -0.090384 -0.028109848
0.1184413 0.10403971 0.16193268 -0.037561014 -0.02800674 0.16695184 -0.070591114 0.10215167
0.09152464 -0.028324228 0.3033619 -0.067387104 0.5813991 -3.2609334 0.04030139 0.061202243
0.008222081 0.08518631 0.17335957 -1.0373088 -0.100839995 0.03762997 0.19432557 -0.29547706
-0.028581455 -0.22664885 -0.01805031 0.01313626 -0.16292597 -0.20803565 -0.20162335 -0.026617665
0.11113667 -0.0036481768 -0.09080238 -0.17420092 -0.33987 -0.10766576 0.06629178 -0.029817935
0.054395396 -0.15898253 0.0826201 -0.0014463359 0.0010975376 0.13750407 0.14225635 0.011222618
0.14280719 -1.9873468 -0.22000553 0.09868138 0.04606615 0.076206535 0.062732264 0.0332102
0.17521024 0.042097654 -0.05224558 0.015884042 0.13151631 0.05429417 0.0482516 -0.041486867
-0.095813006 0.050249387 0.14053679 -0.058130622 -0.042761993 0.0030364841 0.24669869 0.02921334
-0.06744776 0.15520057 0.15900473 0.09124766 0.12804413 -0.10570771 -0.13383166 0.07701668
0.105025396 -0.57925636 0.16349533 0.20217988 0.11052231 0.15552086 -0.23773962 -0.012247518
0.018306427 0.07606954 -0.16793625 0.21068256 0.019355386 -0.44127908 0.121469855 -0.0056030015
0.06417066 -0.051676534 -0.09953209 0.064988516 0.04524257 -0.0017754042 -0.012926891 -0.3248579
0.40690175 -0.18694837 -1.2208246 -0.025832547 -0.21026297 -0.31901 -1.3051351 0.65155554
-0.57612294 0.12598778 0.055596408 -0.08347549 0.057434022 0.104094274 -0.04636074 -0.037864193
-0.047285564 0.107271925 -0.09257553 -0.029466711 -0.012201871 0.03764159 -0.15569425 -0.031537816
-0.008889273 0.028991716 0.0450456 0.0054693124 -0.054255366 -0.30710793 0.12713873 0.15754272
0.32533455 -0.020388134 0.00024202466 -1.1315757 0.01672957 -0.6831676 -0.083268516 -0.11751125
0.40544075 0.056753315 0.041291885 -0.030724356 0.050632183 0.047509167 -0.09043952 0.06536923
0.8125391 0.104897596 0.036055602 0.12752618 -0.005468444 -0.0101287775 0.060642228 0.34602144
0.2916179 0.028220702 0.11065348 0.0023313686 -0.027361702 -0.03159533 -0.09332729 -0.007160157
0.052404754 0.20990391 0.11938222 0.1475341 -0.35572296 0.03496217 0.15361866 -0.042099737
0.05372434 -0.055889234 -0.04037692 0.016793279 -2.0755997 -0.07243339 -0.030316226 0.0026004189

net.2.bias f4 [256]
00000000: b26e b73e 7a73 80bb a91c 373d 0f0b f43c
00000010: 3445 7dbd e84e 30bd 84bf aabc 4b23 e2bc
00000020: 12e2 5b3f 3b98 713d 6d88 10bd 44e3 9fbd
00000030: f7af 9dbc 8ae5 7bbb 776a 86bc 9b37 2bbc
00000040: 98ff 9ebc 6b1a 73bd 494e 99bd b4ce 7bbd
00000050: da78 863c a406 a93c 7c98 883e c0fa 5b3d
00000060: d423 153d 4e9a f9bc d22a a53d 948d bdbd
00000070: 347e 7e3d 5c50 0cbd 23c8 47bd 9d8e 323e
00000080: ae3e 0a3e d3ca d53f 0880 f43f 3ac4 d53d
00000090: c501 b33f b75c c0bc f20d 7d3f 5d59 a03f
000000a0: 7e9f 6d3d 33d9 143e cf89 e83b 4618 0d3d
000000b0: 3d9e 0a3c f8e3 ec3d 79e7 ed3f c89d 1a3e
000000c0: a6ad e93f 2060 643d 910f 1bbb 2e8b 613d
000000d0: b82f 82bc e077 873e 9156 25bd f562 c23f
000000e0: 3223 0d3c 4d55 a4bd 24f9 ae3c 5bfc 183d
000000f0: b23a afbd f4f7 d93d a7e8 cbbd 5da1 e7bd
00000100: 6b1c 473b 968b f33d 94d3 843c 176e d83f
00000110: 3ae1 f13f d467 9abd b29f 1ebd 29c7 00bd
00000120: 65fd 20bd 1670 233d 427a b53f 92d7 34bd
00000130: 809f e7bc 026f 2b3e 7b3f 483e ef1e d4bd
00000140: 9900 563e 8cc0 be3c f9ea 80bd 3d1b 923d
00000150: 9feb b2bd 33e3 71bd 2530 403d 6114 8abd
00000160: 6454 2f3e 8096 53bd 9499 95bd e39e 84bd
00000170: d3cf b63f 1a8d 92bd 0b00 48bd 9641 6c3d
00000180: 989e 943d f141 e3bb 1817 003e 025c af3f
00000190: a0eb 3e3c 8b5d b73d e172 903f 8065 ae3d
000001a0: f1c2 043e 726d 3a3a 766f 513c 16cd 98bc
000001b0: 9f2c 58bd 31bc 40bd 8fe8 b4bc 46c2 f73f
000001c0: 69a2 2ebc 9de8 81bd 69da 903d 79ee be3d
000001d0: f99c 86bd a124 d33c 826f 803d 0e83 9d3d
000001e0: 1026 743b 9b30 5e3d bbc3 213e 9743 6bbd
000001f0: d37c 79bc da41 933f e647 7a3f 4118 f93e
00000200: 50bf 9abd 69b7 d83d 7acb 6bbd 4de4 713e
00000210: 85cb 443b badf 243d 2942 c7bd 0dd7 aa3d
00000220: 356f a6bd 17f2 183d a9e9 223e c9c2 f0bc
00000230: 580b c33f 6ef8 11bd c9ed d1b9 f0f5 883d
00000240: 1f9c 46bb 1f04 eb3c aae8 983c 302b a33d
00000250: 0691 27bd 29b0 88bb 953e 83bb 71ab 41bd
00000260: 4c3d 4fbd 5c32 a73f d8b3 2bbd 3505 223e
00000270: 485d b1bc 4611 2d3e f77a 52bd 8f29 b63d
00000280: 9d9e 053e 06f7 6ebd 7e3e 88bd 64e7 373c
00000290: f6a7 c8bb 237e aa3d 71b7 1e3d afd1 823e
000002a0: 5a3f 85bd 8789 903d c7dc abbd ff50 20bd
000002b0: de01 263f 5be1 e4bd 8b92 1bbd 7ef6 903c
000002c0: 9dab b33e 854b d9bd fc4a 3ebb f766 0340
000002d0: 27d8 ca3d 1250 65bc 40ec bdbd 5074 bdbd
000002e0: 78d3 153b 8379 34bc 8d3a a83e 1aa9 83bd
000002f0: 3ceb 393e 607f cc3f 0395 85bd 5e1b df3d
00000300: cf04 3e3d 2a71 813e bbb1 d73d 5d79 f3bc
00000310: 2d36 4bbd e3e5 d63d 8ad4 273c 1a42 133d
00000320: 7cda e4bd 18ca bcbd dc1a 323e 7731 d9bd
00000330: 8ab4 8ebd ccc6 22bd ccff 543c 93c8 bb3b
00000340: e9c7 4740 580f e43d 0ab6 353d bc54 9a3e
00000350: 62d2 79bc 5a25 263d adeb 953d 27f7 d8bd
00000360: 640a 5d3e d614 0dbe 8d74 84bd 2b53 3e3c
00000370: 2689 1e3d 8321 9d3e c24d 2cbd eaf8 c1bd
00000380: 32b6 ccbd 4582 e1bc 2a45 97bd ce58 8c3d
00000390: 12bf f4bc 6bbb c5bd 64f6 e73f 64ed cebc
000003a0: 8320 efbd 00ff 993d 2aa7 debc 6b25 623f
000003b0: d7aa cd3f 0c07 39bd 9306 4ebe 4be6 fa3e
000003c0: 45e4 7fbd 1778 67bd 3a23 2d3d b6c2 2440
000003d0: 44c7 6bbc 2019 643e 6435 753d 0986 5cbd
000003e0: 19d6 c5bc 788c 823d c0b9 ec3c b7dc 263b
000003f0: 83dc 073e 501c 8cbd d486 003d 080e 50bc
0.3582664 -0.003920016 0.044705067 0.02979043 -0.061833575 -0.043044 -0.020843275 -0.02760472
0.8589183 0.05898307 -0.035286356 -0.07807019 -0.019248946 -0.0038436376 -0.016408188 -0.010450269
-0.019408986 -0.059351366 -0.07485635 -0.061476424 0.016415048 0.02063305 0.26678836 0.05370593
0.03641112 -0.030469086 0.08064808 -0.092555195 0.062132075 -0.034256324 -0.04877485 0.17437215
0.13500473 1.6702522 1.9101572 0.10437818 1.3984915 -0.02348171 0.98849404 1.2527272
0.05801343 0.1453598 0.007096506 0.034446977 0.0084605785 0.11566919 1.8586265 0.15099251
1.8256118 0.055755734 -0.0023660401 0.055064373 -0.015891895 0.26458645 -0.04036576 1.5186449
0.008614348 -0.08024082 0.021359034 0.03735004 -0.08556117 0.106429964 -0.09956484 -0.113100745
0.0030381929 0.11891858 0.01621417 1.6908597 1.8896859 -0.07539335 -0.038726516 -0.031439934
-0.039304156 0.039901815 1.4177935 -0.044150896 -0.028274298 0.16741565 0.19555466 -0.103574626
0.20898665 0.023285173 -0.062948175 0.071341015 -0.087363474 -0.059054565 0.046920914 -0.06742168
0.17122036 -0.0516572 -0.07304683 -0.06475618 1.4282173 -0.07155819 -0.048828166 0.057679735
0.07256812 -0.006935351 0.1250881 1.3699954 0.011652857 0.08953389 1.1285058 0.08515453
0.12964989 0.00071116455 0.012782922 -0.01865248 -0.05277693 -0.047054473 -0.022083549 1.9356163
-0.010658839 -0.063431956 0.070729084 0.09322829 -0.06572909 0.025774302 0.062712684 0.07691012
0.0037254132 0.054245573 0.15797321 -0.057437506 -0.015227514 1.1504471 0.9776596 0.48651317
-0.07556021 0.10581858 -0.057567097 0.23622246 0.0030028534 0.040252425 -0.09729416 0.08341799
-0.0812668 0.03734025 0.15909447 -0.029389756 1.5237837 -0.03563731 -0.0004004075 0.06687534
-0.0030305458 0.028688489 0.01866563 0.07967222 -0.04090979 -0.0041713906 -0.004005263 -0.04728264
-0.050595567 1.3062243 -0.04191956 0.15822299 -0.021650925 0.1690112 -0.0513868 0.088946454
0.13048787 -0.05834105 -0.066525444 0.011224601 -0.006123538 0.0832484 0.038749162 0.255506
-0.06506224 0.07057481 -0.08391719 -0.039139744 0.648466 -0.11175796 -0.03798155 0.017695662
0.35091868 -0.10610107 -0.0029036393 2.0531595 0.09904509 -0.013996141 -0.09273577 -0.092507005
0.002286164 -0.011015299 0.3285717 -0.06428738 0.18156141 1.5976372 -0.06522562 0.10893892
0.046391305 0.2528165 0.10531946 -0.029720956 -0.049612213 0.10493066 0.010243544 0.03595171
-0.11174485 -0.09218234 0.17393059 -0.10605138 -0.06968029 -0.03974037 0.01300044 0.0057306974
3.1215765 0.11135739 0.04436306 0.30142772 -0.015247913 0.040562965 0.07320342 -0.105940156
0.21585995 -0.1377748 -0.06467543 0.0116165085 0.038705014 0.3068963 -0.042066343 -0.09471305
-0.099956885 -0.027527938 -0.07386239 0.06852876 -0.029876266 -0.09654888 1.8122067 -0.025259681
-0.11676123 0.075193405 -0.02717932 0.88338345 1.6067761 -0.045172736 -0.20119695 0.49003825
-0.062473554 -0.05651101 0.042269923 2.5743842 -0.01439077 0.2227521 0.05986537 -0.053838763
-0.024149941 0.063744485 0.028897166 0.0025461146 0.13267712 -0.06841338 0.031378582 -0.012698658

net.4.weight f4 [259, 256]
00000000: d4e9 d13e df58 89bc 7731 713d c13a 20bd
00000010: 9609 9dbc cde2 41bd a3e8 aa3d dd89 7e3c
00000020: 125f 1e3f cbde 923b b4ae 94bb 8fd1 1c3d
00000030: 104e bfbb c8e2 5dbd ce8d 4ebd de1c 113d
00000040: e476 303d 9335 513b 90d6 87bb 290d 32bc
00000050: 5cb7 5e3d f3bd 50bd 02c5 dd3b e4db eb3d
00000060: 973f fabc 9409 1d3d 8c5e 233c 601a 9b3c
00000070: 5d5e 9d3d 2e9b 603d bf77 183b c3bc 953d
00000080: 6b37 22bd 26b9 643d 21d5 01be c157 5c3d
00000090: 6354 b63e 3894 1dbd ae51 263f b963 f93e
000000a0: f36a 923b 29fb 803c 0a0a 05bd 051a 53bd
000000b0: 04d2 823c bdee 493c 5217 733d 1001 f23b
000000c0: 87ef 8f3e 1ead 5d3e e858 eb3a 3c76 0c3d
000000d0: 250e 60bd bd5c 123e e4ba 833c 5f1e bb3d
000000e0: 3478 4c3e 3e05 0c3b 807a 943d ef86 5a3b
000000f0: 22c5 8e3c 829c 733d 07a3 013c 5d88 da3c
00000100: 81a6 72bc 6ca3 f73c a0d1 fdbb b6e1 593e
00000110: 9eb1 1e3e e418 6ebd c431 68ba d66d 8d3c
00000120: 554f 5b3c 945b 373d b01a a13e c0b6 8c3b
00000130: 809f 71bd b45f ad3d 2dcb 143c 802b c6ba
00000140: 1ff2 203e b22d 873d d497 0e3d b536 3b3d
00000150: a04e 123d eef0 2b3d b41e b83c 0541 22bb
00000160: da43 a23e c819 33bd 5f99 cf3c f23b b43d
00000170: 3d2b 143d a064 46bc 12fd 1c3d 0af7 9b3c
00000180: 78b8 223e 26b8 083d 315b 083e 9749 f33d
00000190: 70f3 333d 7647 343e 75e8 b03e b46f 723d
000001a0: 09c6 fdbc a983 93bd 98ad fabc d01e ce3c
000001b0: 1011 b8bb 1522 b3bb 30c0 673d f61f de3e
000001c0: 9041 493d 80ae 06bd 0acb 303d 1b23 0dbb
000001d0: ae1d 8dbc 48ef 43bd 97e5 af3c c242 533e
000001e0: f447 a83b 6e10 fabc b9df a6bb 2c62 633d
000001f0: 860f e4bc 9ad4 8b3e 48a0 1a3d ff27 2d3e
00000200: 7c09 763c 64f6 84bd 5315 823d aaf6 233f
00000210: db5f 92bd 5c11 6b3d b8fe 7dbd f0a2 593d
00000220: 4600 053d 2806 673d 7f7b 7e3e d8ce 0b3d
00000230: 281a aebe 9828 be3d 583d 22bc 9147 253d
00000240: 2fe3 8f3d 3af1 c13c 8761 a13d 4fa4 d23e
00000250: 4e89 41bd aa6c c53d d026 b8bb 86ea fa3b
00000260: 29f9 cd3d c134 063f c0a1 b83a b8ce d33d
00000270: 0544 2c3d 90a6 af3d ee3d 8b3d 77ee ce3d
00000280: 7ea2 d93e 4d44 80bd fcc6 aabc 783a 173e
00000290: 106a 67bd 568d 9dbb 577b 803c 5810 723e
000002a0: e080 f4bc f2b5 da3c 18b3 6ebd 4cba 26bd
000002b0: ae1a cc3e ee3f 10bc ca34 55bd 1965 d3bc
000002c0: ddb5 ec3e 6830 543c 2c3f 023e 2b78 193e
000002d0: 67bf 16bc edb1 003d 3288 dabc e4d6 173c
000002e0: 70b8 d83c 7a5f 733c 3ad8 143f 52c0 1ebd
000002f0: f1c6 48bc 4f11 c53d bc3f 723d 01eb 9c3d
00000300: 9a48 f23d c29c eb3e 0b14 313c 50a2 9d3d
00000310: 581b 6dbd 9243 7a3d 8e64 063d e08b d93d
00000320: f37d 81bc a062 ecbb 5889 cd3d cc68 2a3d
00000330: ecaa bdbc 307e 0fbd 8040 ba3c dbe7 f63d
00000340: 9cf0 bb3e 2437 9b3e fe01 d93d 5cb0 1e3e
00000350: fbe4 80bc 40a5 403c b420 8e3c ceba 173d
00000360: dbc5 043e 237a 893d 4eef efbc c044 793d
00000370: 904a 173d 95b4 d03d fdbf 073d a8ae 8a3c
00000380: ddd8 5abd 29b8 483d 2346 ab3c 74b3 12bc
00000390: a65d f23d ba04 3fbd 4d9c e93e 696d 183d
000003a0: 3500 843c b64e ab3d 4860 12bc 3f64 5c3e
000003b0: cc8c 943e 1cc6 1f3d 84ee ad3d a07d b83e
000003c0: e4ab babb f89b 233d 5962 933d 6649 d43e
000003d0: 24d3 a0bb 9983 ea3d 887c 2f3d 433d 613d
000003e0: 7c77 79bc 21ed b63d 38aa 563e eb8c e83a
000003f0: f64a 073e f1e2 c83b 4257 703d a539 1f3e
0.4099871 -0.01676601 0.058885064 -0.039118532 -0.01916961 -0.047335435 0.08345153 0.015535799
0.61863816 0.0044821254 -0.004537428 0.03828579 -0.005838163 -0.054171354 -0.050428204 0.03542792
0.043082133 0.0031922802 -0.004145451 -0.010867395 0.054374084 -0.0509624 0.00676787 0.1151655
-0.0305479 0.038339213 0.009971272 0.018933475 0.07684014 0.05483549 0.0023264734 0.07311394
-0.039603632 0.055840634 -0.12678958 0.053794626 0.35611257 -0.03847143 0.64968383 0.48708895
0.0044683157 0.015744762 -0.032480277 -0.051538486 0.015969284 0.012324986 0.05934841 0.0073853806
0.28112432 0.2164807 0.0017955573 0.034292445 -0.05470099 0.1429319 0.016080327 0.09136652
0.19967729 0.002136543 0.072499275 0.0033344587 0.017427985 0.05947543 0.007912404 0.026676351
-0.014810205 0.030229293 -0.0077459365 0.21277508 0.15497443 -0.058129206 -0.00088575133 0.017264288
0.013385613 0.04476507 0.31465673 0.0042942464 -0.05899 0.084655195 0.009081644 -0.0015119165
0.15717362 0.066005126 0.034812763 0.04570647 0.035719514 0.041977815 0.022475578 -0.0024757993
0.31692392 -0.04372576 0.025341688 0.08800496 0.036174048 -0.012108952 0.038327284 0.019038696
0.15890682 0.033378743 0.13316037 0.118792705 0.043933332 0.17605385 0.3455235 0.05918856
-0.03097822 -0.072028466 -0.030600354 0.025161177 -0.0056172684 -0.0054667094 0.05657977 0.4338376
0.04913479 -0.03288126 0.043162383 -0.0021535817 -0.017226066 -0.04783562 0.021471782 0.20630935
0.0051355306 -0.030525412 -0.005092588 0.055513546 -0.027839433 0.2731064 0.037750512 0.16909789
0.01501691 -0.06492308 0.063517235 0.64048254 -0.07147189 0.057389602 -0.062010497 0.053133905
0.032470964 0.056402355 0.24851798 0.03413281 -0.3400433 0.092850864 -0.009902321 0.040351454
0.07025754 0.023674596 0.0787993 0.41140983 -0.047250085 0.09639867 -0.005619861 0.007657352
0.10057289 0.52424246 0.0014086291 0.10342163 0.042057056 0.08576691 0.067989215 0.10104077
0.42506784 -0.06263027 -0.020846836 0.14768398 -0.056497633 -0.0048081083 0.015683813 0.23639047
-0.029846609 0.026698086 -0.058276266 -0.04070501 0.39864105 -0.0088043045 -0.052052297 -0.025805043
0.462325 0.012950994 0.1271941 0.14987247 -0.009200907 0.031419683 -0.026676271 0.0092675425
0.026455134 0.014854306 0.58142436 -0.03875763 -0.012254463 0.09622442 0.059142813 0.07662011
0.11830254 0.46018034 0.010808001 0.07696974 -0.057887405 0.061099596 0.03281074 0.10622382
-0.015807128 -0.0072139055 0.10035962 0.04160385 -0.023152791 -0.03503245 0.022735834 0.12055942
0.36707008 0.30315506 0.10596083 0.15496963 -0.015734186 0.011758149 0.017349578 0.037043385
0.12966101 0.06712749 -0.029288914 0.06085658 0.036936343 0.10190693 0.03314208 0.016928986
-0.053429473 0.049003754 0.020907467 -0.008953918 0.11834268 -0.046635367 0.4562706 0.037213717
0.01611338 0.08364622 -0.008934088 0.21522616 0.2901367 0.03900729 0.08492759 0.36033344
-0.0056967605 0.039943665 0.07196493 0.4146225 -0.0049079824 0.114508815 0.04284337 0.054990064
-0.015226241 0.089319475 0.20963371 0.0017742192 0.13212189 0.006130569 0.058676966 0.15549333

net.4.bias f4 [259]
00000000: 6b1d 2a3f 264e 713f f831 793f 24da 593f
00000010: 4f3e 783f ff04 8d3f c708 823f cea4 0e3f
00000020: 04a4 c73e 692e fc3e 8cba 343f a644 433f
00000030: 5bb5 3e3f 6cb1 083f 8cb0 cd3e 35ca 213f
00000040: b41d 103f 6843 2f3f e1fc 043f 149e 1d3f
00000050: a449 f83e e5cc 333f 0eab fd3e 2e38 f93e
00000060: 2fed f43e 7c19 0b3f ce0f 053f 794f 9e3e
00000070: 1dfe 1b3f e4a3 2f3f 9f31 053f e9d4 1f3f
00000080: 2cb5 473f d4f1 da3e 55cf eb3e e63e d63e
00000090: 0df8 b03e 0869 133f 9833 093f de71 1d3f
000000a0: 424d 3e3f 6e1b 183f 8cf6 2a3f 4d0a 073f
000000b0: de3e 163f 56fc 083f 828a 1d3f 48e5 dc3e
000000c0: 9dd5 0b3f 37ec 123f 18a7 383f 85ef 003f
000000d0: f9d5 293f a597 573f 4d9b 1e3f 4a87 d83e
000000e0: 4843 113f 78c8 1c3f c712 0f3f 221f 1b3f
000000f0: a2af 403f 9cd4 e83e bbe2 033f 63b3 b73f
00000100: cb3c 1e3f eb19 5a3f 64ec 173f d0c9 463f
00000110: f45c 3d3f 4682 173f 9571 343f 4864 453f
00000120: 7ef1 5c3f 5109 163f 2907 453f 9e43 1d3f
00000130: f157 843f b4a4 2d3f a173 8e3f 03d2 2e3f
00000140: b479 053f c9a1 da3e 4812 103f 908c f73e
00000150: df55 1f3f 1259 3e3f 9413 1c3f 6de4 f23e
00000160: ce89 393f 2bc6 2f3f 6329 de3e a577 313f
00000170: d3ea 6c3f 1fe9 473f cea8 083f c39a 593f
00000180: f3fd 173f 9401 d33e f5d0 1c3f cea7 123f
00000190: 26c1 383f 2088 013f c4be 3a3f a767 1d3f
000001a0: 4c1d 1c3f 3a99 393f fe75 113f 5866 353f
000001b0: db44 3b3f 0f37 1b3f 7f99 213f 4cf7 0a3f
000001c0: b991 f33e ad88 483f e6f4 4d3f bc15 073f
000001d0: 924c 1f3f a2dc 103f af03 c63e d346 863f
000001e0: 5374 063f 49d8 583f edc4 bd3e 85ec 593f
000001f0: 8530 353f 7bc1 513f 9632 403f 2f16 e93e
00000200: a73f 4d3f 8b48 393f 3826 363f 3bcc 0e3f
00000210: 4e66 1c3f eb77 483f 9075 2c3f 9086 183f
00000220: 68ae 1f3f a7dd 1a3f 20f3 113f 0aa7 2f3f
00000230: e415 373f e083 ec3e 8e1c 053f a73a 803f
00000240: 3d98 2d3f c91b 343f 05c5 483f 5526 eb3e
00000250: 8caf 373f e191 3d3f 4fc3 3b3f af1a 3c3f
00000260: 2dc5 463f fa1d 033f 4434 d93e 6c71 053f
00000270: e368 123f 52f2 5f3f 0a43 e33e 1b99 323f
00000280: 538c 213f 51c0 db3e e277 193f c8fb 033f
00000290: cf50 fc3e 7306 223f d67d ed3e 72a1 c53e
000002a0: 22e8 183f ae7f 583f a9cb 163f b30e 383f
000002b0: 4327 de3e 8efb d23e 5f8d e53e ca30 7a3f
000002c0: cbca 723f 4f71 6b3f e8db f53e 8859 c93e
000002d0: 6701 033f 7410 e63e eaa0 d23e a848 ba3e
000002e0: e24d db3e 94ed 313f 433b 253f 73f3 1e3f
000002f0: 1371 2c3f 5b58 483f cc4b 7a3f d63e 0e3f
00000300: 368f 2f3f 5f10 ee3e ccf3 143f 85bf 333f
00000310: c0cc 083f 87a9 4d3f 63a1 123f 4644 eb3e
00000320: 3676 3a3f e7c2 bb3e 3eb1 2c3f d58f f13e
00000330: e700 cb3e 87f3 1f3f 3e02 0f3f 9ab3 683f
00000340: b76a 293f 0836 f63e 5eb0 193f dce4 113f
00000350: 63ab 403f a4a2 203f d613 0c3f e463 353f
00000360: bb6c 543f 1cc9 213f bdc5 0c3f 466d 5f3f
00000370: 7622 f13e 340a 183f f451 503f 5d79 063f
00000380: 886b 123f ea70 0f3f 2362 233f ca40 603f
00000390: 612f ba3e 12db 493f 67f4 163f 8e77 143f
000003a0: 61d4 203f e215 183f bc2c 1f3f dc70 103f
000003b0: 443a 183f 051a 1a3f ec3b 4f3f f29f 663f
000003c0: c7b8 ba3e 60a5 a53e b2eb c93e 9318 ea3e
000003d0: 591b 6c3f 632d 043f 6700 353f 6613 0f3f
000003e0: 4f85 a93e 1415 273f de84 123f f7f1 2e3f
000003f0: c64b 253f 703b 303f aba3 f23e b438 263f
0.6645114 0.9425987 0.9734187 0.8509848 0.96970075 1.101715 1.0158929 0.5572022
0.38992321 0.49254158 0.7059715 0.76276624 0.74495476 0.53395724 0.40173757 0.6319917
0.56295323 0.6846223 0.5194836 0.61569333 0.48493683 0.7023452 0.49544567 0.48675674
0.47837207 0.5433576 0.5197724 0.30920008 0.6093462 0.6860945 0.5202884 0.6243425
0.7801082 0.42762625 0.4605662 0.41844863 0.34564248 0.5758214 0.5359435 0.6150187
0.74336636 0.59416854 0.6678245 0.5275009 0.5868968 0.53510034 0.6153947 0.43143678
0.54622823 0.57391685 0.72129965 0.5036548 0.6634212 0.84215766 0.6195572 0.42290717
0.5674329 0.6124339 0.55888027 0.6059438 0.75267994 0.45474708 0.5151784 1.435162
0.6181151 0.851958 0.5934508 0.7765169 0.7396996 0.59183156 0.7048581 0.7710614
0.8630599 0.58607966 0.7696405 0.614313 1.0339338 0.6782944 1.1129037 0.682892
0.5213883 0.42701557 0.56277895 0.48349428 0.62240404 0.7435466 0.60967374 0.474399
0.724759 0.68661755 0.4339095 0.6932319 0.92545813 0.7809009 0.53382576 0.8500177
0.5937187 0.41212142 0.61256343 0.572873 0.7216972 0.50598335 0.72947335 0.61486286
0.60982203 0.7249943 0.56820667 0.7085929 0.7315194 0.6063089 0.6312484 0.54283595
0.47572115 0.7833355 0.8045181 0.5276754 0.6222621 0.5658666 0.38674685 1.0490364
0.52521247 0.84705025 0.37064305 0.85126525 0.7077716 0.8193585 0.7507719 0.45524737
0.8017525 0.72376317 0.7115207 0.5578038 0.61093605 0.7830798 0.67366886 0.59580326
0.623755 0.60494465 0.57011604 0.68614256 0.7151778 0.46194363 0.51996696 1.0017899
0.6781042 0.70354897 0.7842563 0.45927683 0.7175224 0.7405072 0.7334489 0.73478216
0.77644616 0.51217616 0.42422688 0.52126193 0.57191294 0.87479126 0.44387084 0.6976487
0.6310474 0.42920163 0.5994855 0.5155606 0.49280402 0.6329109 0.46385068 0.38599735
0.59729207 0.84569824 0.5890451 0.7189743 0.4338933 0.41207546 0.4483442 0.97730696
0.9484069 0.9196977 0.48019338 0.3932612 0.51174015 0.44934428 0.41138393 0.36383557
0.42832857 0.6950314 0.6454355 0.62090224 0.6736004 0.7825982 0.97771907 0.5556463
0.685779 0.46496865 0.58184505 0.7021411 0.53437424 0.80336803 0.57277507 0.45950526
0.72836626 0.36672136 0.6745795 0.47180048 0.39649126 0.6248097 0.55862796 0.9089905
0.6617846 0.48088098 0.6003474 0.56989837 0.75261515 0.6274817 0.5471777 0.70855546
0.8297841 0.63197494 0.54989225 0.87276113 0.47096604 0.5939057 0.8137505 0.52528936
0.5719533 0.5603167 0.6382162 0.8759886 0.36364272 0.788499 0.5896668 0.57994926
0.62824064 0.5940839 0.62177634 0.5642221 0.59463906 0.6019595 0.8095081 0.9008781
0.364691 0.32352734 0.39437634 0.45721874 0.9222923 0.51631755 0.7070374 0.55888975
0.3310952 0.6526654 0.5723399 0.6833796 0.64568746 0.68840694 0.47390494 0.6493027
